computer_vision/seminar12_meta-learning/exp/last_model.pth (torch, 459207 bytes, 24 tensors)

encoder.0.0.weight f4 [64, 1, 3, 3]
0	0x3e8e725e	0.2782163
1	0x3ca53246	0.020165574
2	0xbe2b48c3	-0.16726975
3	0xbd2f79c1	-0.042840723
4	0xbe718443	-0.2358561
5	0x3e8530b5	0.26013723
6	0xbcf824cc	-0.030290984
7	0xbd84acb2	-0.064782515
8	0x3e98d2e8	0.2984841
9	0xbe942d35	-0.2894074
10	0xbd155734	-0.036460117
11	0x3e791b4f	0.24326824
12	0x3ddce602	0.10786058
13	0xbdd0ae66	-0.10189514
14	0x3db39065	0.087677754
15	0xbdae3331	-0.08505858
16	0xbe6f0aad	-0.23343916
17	0x3d9b5492	0.0758449
18	0x3c802962	0.015644733
19	0xbc865ccf	-0.016401676
20	0xbe675c05	-0.22593696
21	0xbde28fdc	-0.11062595
22	0xbc8b9d04	-0.017042644
23	0x3e9e623b	0.3093432
24	0xbe4bd08e	-0.19903776
25	0xbea44e5a	-0.32091027
26	0x3e8ed28d	0.27895012
27	0xbe11b7d5	-0.14230283
28	0xbdf84eef	-0.121244304
29	0x3de9ff1b	0.11425611
30	0x3e8c7a20	0.27436924
31	0x3dc4a3a7	0.09601527
32	0xbba3adad	-0.004995069
33	0xbdbcf958	-0.09227246
34	0x3ddec7f0	0.10877979
35	0xbe42a5e9	-0.19008602
36	0x3e8fbc67	0.28073427
37	0xbc81c4d6	-0.015840929
38	0x3e58a799	0.21157683
39	0xbe3173a2	-0.17329267
40	0xbcf2a35b	-0.02961891
41	0xbe492b89	-0.19645514
42	0x3e7a00eb	0.24414413
43	0xbe2aa0d0	-0.16662908
44	0xbe26b839	-0.16281213
45	0x3e755e80	0.2396183
46	0xbe6eca29	-0.23319305
47	0x3ce64cec	0.028112851
48	0x3e2b9e40	0.16759586
49	0xbe8bf160	-0.27332592
50	0x3e0402f2	0.12891749
51	0xbdd55c77	-0.10418027
52	0x3e0ca1b2	0.13733557
53	0x3dad76a8	0.084698975
54	0x3dfcaff3	0.12338247
55	0xbe9e719a	-0.30946046
56	0x3dc2320e	0.094822034
57	0x3e862100	0.26197052
58	0xbe98ee53	-0.29869327
59	0x3e2b44e0	0.16725492
60	0x3e14a62e	0.14516518
61	0xbc8578fb	-0.01629304
62	0xbe54cf4a	-0.207822
63	0xbe6c4f7d	-0.23077197
64	0xbe40c07a	-0.18823424
65	0xbdcc57b3	-0.09977665
66	0x3e59d48d	0.21272488
67	0xbe848c02	-0.25888067
68	0xbe2c953d	-0.16853805
69	0x3ddc556e	0.10758482
70	0xbe4b6c28	-0.19865477
71	0xbe532024	-0.2061773
72	0xbe7b3d70	-0.24535155
73	0xbe7c894e	-0.24661753
74	0x3e835015	0.25647035
75	0xbd466389	-0.048434768
76	0xbe0a00f2	-0.13476923
77	0xbe9aa03a	-0.30200368
78	0x3e984979	0.29743555
79	0x3e8f0af9	0.2793806
80	0x3e9362a1	0.28786185
81	0x3e42996e	0.19003841
82	0xbe3fa77b	-0.18716232
83	0xbe5431d7	-0.20722137
84	0xbe91385b	-0.28363308
85	0xbdd8188d	-0.10551558
86	0xbe4965e0	-0.19667768
87	0x3ea124c5	0.31473365
88	0xbe74b8d2	-0.23898628
89	0x3e57b201	0.21063997
90	0x3c487b8e	0.012236489
91	0xbdcfdb3d	-0.10149238
92	0xbc49ecc5	-0.012324517
93	0x3c6558da	0.013998235
94	0x3eacd055	0.33752695
95	0x3e19d670	0.15023208
96	0xbe80eda0	-0.25181293
97	0x3e9e90e3	0.30969915
98	0x3e55fcbc	0.20897192
99	0xbe5547d1	-0.20828177
100	0x3e340be5	0.17582662
101	0xbe842013	-0.2580572
102	0xbd1f69ff	-0.038919445
103	0xbe565f18	-0.20934713
104	0xbe025cbd	-0.1273069
105	0x3d345d3e	0.044034235
106	0x3ea76bdd	0.3269948
107	0xbe003a0b	-0.12522142
108	0xbd87f6cb	-0.06638869
109	0x3e09b49b	0.13447802
110	0x3de895fb	0.113567315
111	0x3dd2438a	0.10266788
112	0xbd3541c4	-0.044252172
113	0xbded91ce	-0.11600076
114	0x3e8a3e57	0.27000687
115	0x3e2fd493	0.17170934
116	0x3c8a2b04	0.016866215
117	0x3e902a68	0.28157353
118	0x3e506ed4	0.20354778
119	0x3e85243a	0.260042
120	0xbea53029	-0.32263306
121	0xbe78d91a	-0.24301568
122	0xbd804194	-0.06262508
123	0x3d373119	0.044724558
124	0xbe3cd4f7	-0.18440615
125	0xbd8ec458	-0.06971043
126	0xbe9d40bc	-0.3071345
127	0x3e9113fc	0.2833556
128	0xbe2d482c	-0.16922063
129	0x3dc5b0bd	0.09652851
130	0xbe34bfa8	-0.17651236
131	0x3e10ca3b	0.14139645
132	0xbe22a673	-0.15883808
133	0x3e157eaa	0.145991
134	0x3d1944c6	0.037419103
135	0xbe684a78	-0.22684658
136	0xbe08a50b	-0.13344209
137	0xbe6f6481	-0.23378183
138	0xbdb319ee	-0.0874518
139	0x3d7ebd22	0.06219209
140	0x3c58b774	0.013227332
141	0xbe8b5ecd	-0.27220765
142	0x3e97c1e1	0.29640105
143	0xbdf4327d	-0.119236924
144	0xbe66822b	-0.22510593
145	0x3e69ae3f	0.22820376
146	0x3de2a0ea	0.11065848
147	0xbdb1997d	-0.08671854
148	0xbe4c9117	-0.19977222
149	0xbde2be67	-0.110714726
150	0x3d851a6e	0.06499182
151	0x3e855478	0.26041007
152	0xbe264f02	-0.16241077
153	0x3d949662	0.07255246
154	0x3dc2792e	0.094957694
155	0xbe9bb41d	-0.30410853
156	0x3e12b57d	0.14327045
157	0xbe1b09ad	-0.1514041
158	0xbe5e410a	-0.21704498
159	0xbd0a6f54	-0.033797577
160	0xbe92b5c0	-0.2865429
161	0x3e98682f	0.29766986
162	0x3e30d61f	0.1726918
163	0xbdd73fc8	-0.10510212
164	0x3e751b80	0.23936272
165	0x3e37713e	0.17914292
166	0x3e518154	0.20459491
167	0xbe3b9e7f	-0.1832218
168	0x3e376f9b	0.17913668
169	0xbeb2d05b	-0.34924588
170	0xbe079197	-0.13239132
171	0x3d854e92	0.06509127
172	0xbe1f0da4	-0.15532547
173	0xbe8bbcee	-0.2729258
174	0xbe231c6f	-0.15928815
175	0xbd52cf87	-0.051467445
176	0xbe45e654	-0.19326144
177	0xbe32f0ac	-0.17474622
178	0xbdd529ed	-0.10408387
179	0x3e9f8dc2	0.3116284
180	0x3e3d17fd	0.18466182
181	0xbe147b20	-0.14500093
182	0x3dcf303e	0.10116623
183	0xbe1d779f	-0.15377663
184	0x3e40f7df	0.18844555
185	0xbdd0348f	-0.10166275
186	0xbe8046ad	-0.2505392
187	0x3e401560	0.18758154
188	0x3d7c8fb7	0.061660495
189	0x3daaca18	0.083393276
190	0xbe31f8dc	-0.17380089
191	0xbea8dd21	-0.32981208
192	0xbe66596c	-0.22495049
193	0x3d1a452a	0.037663616
194	0x3cc6a1cb	0.02424707
195	0xbc5a62f0	-0.013329253
196	0xbe94e2da	-0.29079324
197	0x3e90b9c0	0.28266716
198	0xbdcaf086	-0.099091575
199	0x3e2f408f	0.17114471
200	0x3ccbbfea	0.024871785
201	0xbdb464c0	-0.08808279
202	0xbde31748	-0.11088425
203	0x3d9b6bfe	0.07588957
204	0xbd66d8a7	-0.05635896
205	0xbdc2fc4d	-0.09520779
206	0xbe158b9a	-0.14604035
207	0x3e6b7ed2	0.22997597
208	0xbeae578a	-0.34051162
209	0x3dec9067	0.1155098
210	0x3ea2ceae	0.3179831
211	0x3da9e215	0.08295075
212	0x3e54841a	0.20753518
213	0xbea08405	-0.31350723
214	0xbea569a1	-0.3230715
215	0x3e5691c3	0.20954041
216	0xbdc09dd7	-0.094051056
217	0xbe707b2a	-0.23484483
218	0x3e6582a4	0.22413117
219	0xbe12d178	-0.14337718
220	0xbda12285	-0.07867912
221	0x3cc0effc	0.023551933
222	0xbe7dfcf1	-0.2480352
223	0xbe4de397	-0.2010635
224	0x3e96b7ae	0.2943701
225	0x3e5ef3aa	0.21772638
226	0xbd84cff2	-0.06484975
227	0x3e8fba59	0.2807186
228	0xbe1b3526	-0.15156993
229	0x3e8ca3c2	0.27468687
230	0x3d4c0a0c	0.04981427
231	0xbc183e4a	-0.009292195
232	0x3e66153d	0.2246904
233	0x3dd78aab	0.10524496
234	0xbe52c36a	-0.20582357
235	0xbe305439	-0.17219628
236	0xbe99ac98	-0.3001449
237	0x3e28d86d	0.1648881
238	0xbe97c093	-0.2963911
239	0x3e04209d	0.12903066
240	0x3e35cf12	0.17754772
241	0x3cf071bf	0.029351113
242	0xbe3e9740	-0.18612385
243	0x3e85256e	0.2600512
244	0x3e6605e2	0.22463182
245	0x3e5ccfe6	0.21563682
246	0xbd2c4026	-0.042053364
247	0x3d1b553a	0.037923075
248	0xbe31b61e	-0.17354628
249	0xbe833f03	-0.25634012
250	0x3e7af8e4	0.24509007
251	0xbe0b6ed5	-0.13616498
252	0x3db34dd5	0.0875508
253	0xbe9062d3	-0.28200397
254	0x3e907ace	0.28218693
255	0x3eb07d76	0.3447072

encoder.0.0.bias f4 [64]
0	0x3e83505d	0.2564725
1	0xbea228dc	-0.31671798
2	0xbe907ce8	-0.28220296
3	0x3e977a65	0.29585567
4	0x3dedb49b	0.116067134
5	0xbea4c747	-0.32183287
6	0xbd6b4a11	-0.057443682
7	0xbd86d0ba	-0.0658278
8	0x3e3d5ca4	0.18492371
9	0xbc2d12ae	-0.010563536
10	0xbdb14675	-0.08656017
11	0xba025ada	-0.00049726444
12	0x3cb55a7d	0.022137875
13	0xbe4f3e53	-0.20238619
14	0x3e2b7613	0.1674426
15	0xbd8845fe	-0.06653975
16	0x3c86fcff	0.01647806
17	0xbe30cb66	-0.1726509
18	0x3e019d35	0.12657626
19	0x3e21b6b4	0.15792352
20	0xbe180ba4	-0.1484819
21	0x3d95ff0a	0.073240355
22	0x3e5946e5	0.2121845
23	0x3e82807c	0.2548865
24	0x3e4d5004	0.20050055
25	0x3e783fa6	0.2424303
26	0xbdacb1df	-0.08432364
27	0x3d6bb025	0.05754103
28	0x3e9d7dbb	0.30759987
29	0x3dd2754b	0.10276278
30	0xbe75f29b	-0.24018328
31	0x3d1dda13	0.03853805
32	0x3dd3d868	0.103440106
33	0x3e8e53d0	0.2779832
34	0xbe8f88b8	-0.28033996
35	0xbe3cb0d5	-0.18426831
36	0x3e855cc2	0.2604733
37	0x3e833931	0.2562957
38	0x3eaa91c4	0.33314335
39	0x3e77b4cf	0.24190067
40	0xbe534cb0	-0.20634723
41	0x3ea2b679	0.3177984
42	0x3e0bff94	0.13671714
43	0x3c867a2d	0.01641568
44	0x3dc5634d	0.09638081
45	0xbbaf6a9d	-0.0053532855
46	0xbe8e1d58	-0.27756763
47	0x3e17a7e9	0.14810146
48	0x3eacfc44	0.33786213
49	0xbda4ab8e	-0.08040534
50	0xbdaa2c36	-0.08309214
51	0x3e91c64f	0.2847161
52	0x3e85e58c	0.26151693
53	0xbe944e20	-0.28965855
54	0x3bea96d7	0.007159095
55	0x3e2006b4	0.15627557
56	0xbe9b5b22	-0.30342966
57	0xbe37ac4d	-0.17936821
58	0x3e0bb6f7	0.13644014
59	0xbd66c018	-0.05633554
60	0xbe886252	-0.26637512
61	0xbc7dd5bb	-0.015492852
62	0xbd17fbcc	-0.037105367
63	0xbd9c99b0	-0.07646501

encoder.0.1.weight f4 [64]
0	0x3f7b7624	0.98227143
1	0x3f800519	1.0001556
2	0x3f7da969	0.99086624
3	0x3f7ea3c8	0.9946866
4	0x3f7ad16b	0.97975796
5	0x3f7b23fe	0.98101795
6	0x3f7e3b1c	0.99308944
7	0x3f8838de	1.0642354
8	0x3f80ff47	1.0077904
9	0x3f81a26c	1.0127692
10	0x3f7cd73c	0.9876592
11	0x3f8043c5	1.0020682
12	0x3f782e7b	0.96945924
13	0x3f8273f8	1.0191641
14	0x3f7b3cd4	0.9813969
15	0x3f86310e	1.048372
16	0x3f8033f7	1.0015858
17	0x3f819688	1.0124063
18	0x3f7c601c	0.9858415
19	0x3f86c947	1.0530175
20	0x3f7b4177	0.98146766
21	0x3f835ccc	1.0262694
22	0x3f8a01ea	1.0781834
23	0x3f7be359	0.9839378
24	0x3f816b10	1.0110798
25	0x3f7c9757	0.98668426
26	0x3f81540e	1.0103776
27	0x3f78f34c	0.9724624
28	0x3f7ee215	0.99563724
29	0x3f7c35cc	0.9851959
30	0x3f7ffd18	0.99995565
31	0x3f7ddd45	0.99165756
32	0x3f84e6df	1.0382956
33	0x3f7dc436	0.9912752
34	0x3f77518d	0.9660881
35	0x3f831caa	1.0243123
36	0x3f8081b9	1.0039588
37	0x3f7f3705	0.9969333
38	0x3f83b672	1.0290053
39	0x3f7d2dad	0.9889782
40	0x3f80646a	1.0030644
41	0x3f7b3768	0.9813142
42	0x3f84b247	1.0366906
43	0x3f8079f7	1.0037221
44	0x3f7f5e1f	0.9975299
45	0x3f839d45	1.028237
46	0x3f8134c3	1.0094227
47	0x3f82201c	1.0166049
48	0x3f8181ce	1.0117738
49	0x3f8352a2	1.0259593
50	0x3f812a7a	1.0091088
51	0x3f8065ee	1.0031106
52	0x3f8211df	1.0161704
53	0x3f8310d4	1.023951
54	0x3f7e1735	0.9925416
55	0x3f815d9f	1.0106696
56	0x3f7e3dc7	0.99313015
57	0x3f82f5e6	1.0231292
58	0x3f82bae6	1.0213287
59	0x3f7c9f12	0.9868022
60	0x3f8d3b6b	1.1033758
61	0x3f7b8b45	0.98259383
62	0x3f802932	1.0012572
63	0x3f7d4649	0.9893537

encoder.0.1.bias f4 [64]
0	0xbc848173	-0.016175007
1	0x3b69a00e	0.0035648379
2	0xbb8325c8	-0.0040023066
3	0xbbdb601a	-0.006694806
4	0xbc3412ca	-0.010990808
5	0xbd26c89a	-0.040718652
6	0xbb37ba5e	-0.0028034667
7	0x3c7f282e	0.015573544
8	0xbd150930	-0.036385715
9	0xbb1df0ab	-0.0024099748
10	0xba8682c4	-0.001026236
11	0xbba7f306	-0.005125406
12	0xbd1054f0	-0.035237253
13	0xbc25a710	-0.010110632
14	0xbc2e7bfa	-0.0106496755
15	0x3c4bbaa4	0.012434635
16	0x3a94d9fc	0.0011356468
17	0xb9ffab2a	-0.00048764917
18	0xbcb04a95	-0.021519938
19	0x3c9c7654	0.019099392
20	0xbd0c2c23	-0.03422178
21	0x3c4c1a41	0.012457431
22	0x3b8de491	0.0043302258
23	0xbca3af9d	-0.0199812
24	0xbc21943b	-0.009862001
25	0xbd07b4ea	-0.033131517
26	0x3baa8295	0.005203555
27	0xbd083dc4	-0.03326203
28	0xbcefd5a5	-0.029276678
29	0xbc4036ca	-0.011731813
30	0xbcd46d0a	-0.0259309
31	0xbca604a3	-0.020265883
32	0xbc1c8caa	-0.009555021
33	0xbb9b08ef	-0.0047312896
34	0xbd2ce020	-0.04220593
35	0x3c816cce	0.015798952
36	0x3c1b571c	0.009481218
37	0x3ab605be	0.0013887209
38	0x3c3f8280	0.0116888285
39	0xbd5970e6	-0.053086184
40	0xbc75badf	-0.014998167
41	0xbc2cdc9a	-0.010550642
42	0xbabdf1b9	-0.0014491595
43	0xbb1c6541	-0.0023864063
44	0x3bd0d333	0.006372833
45	0xba3d2ca2	-0.00072164286
46	0x3b4d5fa1	0.0031337517
47	0x3cd9f3d8	0.026605532
48	0x3c7c5172	0.015400277
49	0xbca914c8	-0.020639792
50	0x3c0feebc	0.008784946
51	0x3cb8e51e	0.02257019
52	0xbca13022	-0.019676272
53	0xbb44498d	-0.0029951066
54	0xbd89df05	-0.06731991
55	0xbb939744	-0.0045041163
56	0xbd620e61	-0.055189494
57	0x3cade1a0	0.02122575
58	0x3c5c33fb	0.0134401275
59	0xbccb6793	-0.024829661
60	0x3d1a0376	0.037600957
61	0xbca03097	-0.01955442
62	0xbc4711ba	-0.012150222
63	0xbbe264da	-0.006908995

encoder.0.1.running_mean f4 [64]
0	0x3e90137a	0.2813986
1	0xbeabaeb1	-0.33531716
2	0xbe9c0635	-0.30473486
3	0x3e9a0af9	0.30086496
4	0x3dea97bb	0.114547215
5	0xbe9d326f	-0.3070254
6	0xbd774796	-0.060371004
7	0xbe17f0f6	-0.14838013
8	0x3e4a7f88	0.19775212
9	0xbd4f1fcd	-0.050567437
10	0xbd125c5a	-0.035732605
11	0xbd08718e	-0.03331142
12	0x3d8b78c6	0.06810145
13	0xbe563224	-0.20917565
14	0x3e22fa70	0.15915847
15	0xbdfaf384	-0.12253478
16	0x3c262e84	0.010142926
17	0xbe519d13	-0.20470075
18	0x3e121f4a	0.14269748
19	0x3dce858e	0.10084067
20	0xbe12925d	-0.14313646
21	0x3ccfe47e	0.025377508
22	0x3e3c9594	0.18416435
23	0x3e8978fa	0.2685011
24	0x3e2dc340	0.16969013
25	0x3e9f183c	0.31073177
26	0xbe0c5e89	-0.13707937
27	0x3db0f91e	0.08641265
28	0x3eb9a501	0.362587
29	0x3daadc6c	0.083428234
30	0xbe6f57c4	-0.23373324
31	0x3d183df8	0.037168473
32	0x3d6a91b1	0.05726785
33	0x3e85f2dd	0.26161852
34	0xbe5c02a4	-0.21485382
35	0xbe7420df	-0.23840664
36	0x3e7e7528	0.24849379
37	0x3e720f74	0.23638707
38	0x3e9ca2a6	0.3059284
39	0x3e8a76c0	0.27043724
40	0xbe4114e4	-0.18855625
41	0x3ea33553	0.3187662
42	0x3dddff95	0.10839764
43	0x3bc6bb01	0.006064773
44	0x3dad282e	0.08454929
45	0xbd2b3578	-0.04179904
46	0xbeb1cc24	-0.3472606
47	0x3df259d9	0.11833543
48	0x3e8c665c	0.27421844
49	0xbd960047	-0.07324272
50	0xbdee8dd1	-0.11648143
51	0x3e8df181	0.27723315
52	0x3e6d96be	0.23202035
53	0xbea87a0a	-0.32905608
54	0x3d8a4491	0.06751359
55	0x3e1386cc	0.1440689
56	0xbe79661c	-0.24355358
57	0xbe40838d	-0.18800183
58	0x3dc2d29d	0.095128275
59	0x3c09b620	0.008405238
60	0xbe9a259f	-0.30106828
61	0x3cf6d42e	0.030130472
62	0xbc956494	-0.018236436
63	0xbdc3795e	-0.09544633

encoder.0.1.running_var f4 [64]
0	0x3c62d22e	0.013844056
1	0x3c61401f	0.013748198
2	0x3ca35ce2	0.01994175
3	0x3bd5c61d	0.006523861
4	0x3c74dc98	0.014945172
5	0x3c165231	0.009174869
6	0x3c82c4c5	0.015962968
7	0x3d3d52f1	0.046221677
8	0x3d04860c	0.0323544
9	0x3cd6cd02	0.026220802
10	0x3d049fe9	0.032379065
11	0x3c8db94b	0.017300269
12	0x3c819e2e	0.015822496
13	0x3cd96080	0.026535273
14	0x3be7f4e9	0.007078756
15	0x3cc2e566	0.023791026
16	0x3c24586d	0.010030848
17	0x3c92c34d	0.017915392
18	0x3c9b5f25	0.018966267
19	0x3cde46de	0.027133401
20	0x3be34f52	0.006936946
21	0x3cb6da35	0.022320846
22	0x3bf99ce1	0.0076175784
23	0x3cd98d1b	0.026556542
24	0x3cde0c4c	0.027105473
25	0x3d00ec99	0.031475637
26	0x3cea9adb	0.028638294
27	0x3cb5c4bf	0.022188542
28	0x3d105930	0.035241306
29	0x3cc0ad3d	0.023520106
30	0x3ca0f3ee	0.019647565
31	0x3ce488c2	0.027897242
32	0x3ceff589	0.029291885
33	0x3c80f364	0.015741058
34	0x3d2d02f9	0.042239163
35	0x3d0b0f5f	0.033950206
36	0x3c6dd3b4	0.014515806
37	0x3c60bf25	0.013717447
38	0x3c6d3cff	0.014479875
39	0x3c91424e	0.017731812
40	0x3c8a95cd	0.016917134
41	0x3c9b2cc3	0.018942242
42	0x3ccf1771	0.025279732
43	0x3c3d900e	0.01156999
44	0x3c205860	0.009786695
45	0x3c5a59d3	0.01332708
46	0x3d263d41	0.04058576
47	0x3c77c095	0.015121599
48	0x3d1914e8	0.037373453
49	0x3c5d90e9	0.013523319
50	0x3cd74e27	0.026282383
51	0x3c2143d5	0.009842833
52	0x3cbcb1e4	0.023034044
53	0x3d393aec	0.045222208
54	0x3d11492f	0.035470184
55	0x3c44bfd2	0.012008624
56	0x3ce6e213	0.028183972
57	0x3c01dc19	0.0079260105
58	0x3d21fe39	0.039549086
59	0x3d1713c6	0.03688409
60	0x3c4d0fa5	0.012515937
61	0x3c979816	0.018505137
62	0x3ca633d9	0.020288395
63	0x3ca51fc0	0.020156741

encoder.1.0.weight f4 [64, 64, 3, 3]
0	0xbd20dffe	-0.039276116
1	0x3c3687c3	0.011140767
2	0xbc4b5e3b	-0.012412603
3	0xb9fb1a88	-0.00047894218
4	0xbb42558a	-0.0029653036
5	0xbbc20030	-0.0059204325
6	0x3b9ea97c	0.0048419815
7	0xbce8dac5	-0.02842463
8	0x3ca0483a	0.01956569
9	0x3c106db9	0.008815222
10	0xbc40a179	-0.011757248
11	0xbc4ae5ef	-0.012383922
12	0x3a3f7597	0.0007303594
13	0x3c4c08f0	0.012453303
14	0xbc24c22f	-0.010056063
15	0xbd4d2d58	-0.05009207
16	0x3ceed98a	0.029156465
17	0x3d12a4c9	0.035801683
18	0x3c263e98	0.010146759
19	0xbcbbd20a	-0.022927303
20	0xbce0def2	-0.027450059
21	0xbb3239c5	-0.0027195078
22	0x3c220bec	0.009890538
23	0xbd1913e1	-0.037372474
24	0x3c3ab738	0.011396222
25	0xbd044cdc	-0.03229986
26	0x3d587675	0.052847344
27	0xbb455ceb	-0.0030115198
28	0xbca1ff37	-0.019775016
29	0xbd21435c	-0.03937088
30	0xbd08381c	-0.033256635
31	0x3c4f857f	0.012666105
32	0x3ca72091	0.020401271
33	0xbcca212f	-0.024674026
34	0xb9e4d98e	-0.0004364964
35	0x3d2dfccc	0.042477414
36	0x3c8001d8	0.01562588
37	0xbd187189	-0.03721765
38	0xbc0485d9	-0.008088552
39	0x3cf1f908	0.029537693
40	0x3d2e06d6	0.042486988
41	0x3cfd37a4	0.03091032
42	0xbd53f6fb	-0.05174921
43	0xbcedb161	-0.029015245
44	0xbd2192ef	-0.039446767
45	0x3b904220	0.004402414
46	0x3d076f08	0.033064872
47	0xbd286a6d	-0.04111712
48	0xbbbef724	-0.0058278013
49	0xbd38e1c6	-0.04513719
50	0xbd0d9a38	-0.034570903
51	0x3d0e449d	0.034733403
52	0x3d0159f0	0.03157991
53	0xba152160	-0.0005688872
54	0xbc165408	-0.009175308
55	0xbc4dcc06	-0.01256085
56	0x3bb41023	0.0054950877
57	0xbcc8f61b	-0.024531415
58	0x3c81b41a	0.01583295
59	0x3c8bb9b6	0.017056327
60	0x3a66fd58	0.0008811555
61	0x3bf64591	0.007515617
62	0x3c330d77	0.010928503
63	0xbc06b858	-0.008222662
64	0x3d1d9966	0.03847637
65	0xbc9b4e09	-0.018958108
66	0xbcf2730a	-0.02959587
67	0x3cb31f23	0.021865433
68	0xbcbaa1be	-0.022782203
69	0xbc25ff17	-0.010131619
70	0x3cc04d76	0.023474436
71	0xbd48a312	-0.04898364
72	0x3d13ce98	0.036085695
73	0x3d350b7d	0.04420041
74	0x3d4c9f19	0.049956415
75	0xbd20fb69	-0.039302263
76	0x3cee2c67	0.029073907
77	0x3cbc8bf7	0.02301596
78	0x3cce368f	0.0251725
79	0x3d087561	0.033315066
80	0x3d55b7cf	0.052177247
81	0xbcd06757	-0.025439901
82	0xbc901cd2	-0.017591868
83	0x3c8522d6	0.016251963
84	0x3b27a76e	0.0025581974
85	0xbd1a0cd5	-0.037609894
86	0x3b90e8ec	0.0044222977
87	0xbc3396e7	-0.010961271
88	0x3c74de32	0.014945554
89	0x3d67c4ad	0.05658405
90	0xbce21b2f	-0.027600853
91	0xba37d8b4	-0.0007013187
92	0xbd23919c	-0.039933786
93	0xbcc24f8c	-0.023719572
94	0xbcb5b1cd	-0.022179509
95	0x3b6d288e	0.0036187503
96	0xbca2f60e	-0.019892719
97	0x3b73da29	0.003720889
98	0x3c3a8c18	0.01138594
99	0x3d23ac0e	0.039959006
100	0xbce66e73	-0.028128838
101	0xbb95d216	-0.0045721633
102	0xbc685ef3	-0.014182794
103	0x3cf5b4d9	0.029993461
104	0x3d3b17d3	0.045677017
105	0xbc8737a9	-0.016506033
106	0x3c8ceab3	0.017201757
107	0x3d4b9b9b	0.049708944
108	0x3cfa6e19	0.030570077
109	0x3caad0a5	0.020851443
110	0x3ce71586	0.028208505
111	0x3c363ab9	0.011122399
112	0xbb534a3a	-0.0032240287
113	0xbbaff532	-0.0053698057
114	0x3d227ab2	0.039667793
115	0x3c903c7b	0.017606964
116	0xbcc429f6	-0.02394579
117	0x3b97d9f6	0.0046341373
118	0xbcdb2139	-0.02674924
119	0xbcaa0019	-0.020752
120	0xbc5bee96	-0.013423583
121	0x3cd65f8b	0.026168605
122	0x3b7db674	0.0038713487
123	0xbb06e4bb	-0.0020583111
124	0xbd01775d	-0.031607974
125	0xbceb43f4	-0.028718926
126	0xbd0c825d	-0.03430401
127	0xbc90d7d8	-0.017681047
128	0x3c5bc5dc	0.013413873
129	0xbc15043d	-0.009095249
130	0x3bd2b112	0.0064298
131	0x3ca94870	0.020664424
132	0xbb9a9788	-0.004717771
133	0xbcc9ae8e	-0.024619367
134	0x3d1cfaa8	0.038324982
135	0xbcf9f271	-0.030511113
136	0x3cba65c5	0.022753606
137	0xbc870362	-0.016481105
138	0x3b5314be	0.0032208408
139	0x3d717a3b	0.05895446
140	0x3d6fa4c0	0.058506727
141	0xbc920791	-0.017825874
142	0x3da3ebd6	0.080039665
143	0x3d43af89	0.047774825
144	0xbce7b721	-0.028285565
145	0x3ce27400	0.027643204
146	0xbc6252a4	-0.013813648
147	0xbd136241	-0.035982374
148	0x3d12dc8f	0.035854872
149	0x3c7b6f84	0.015346412
150	0xbc1430f4	-0.009044874
151	0x3c73bcf0	0.014876589
152	0xbcd933dd	-0.026513988
153	0x3be13718	0.0068730228
154	0xbd09d2ee	-0.033648424
155	0xbd1bcab0	-0.038035095
156	0xbad6dc73	-0.0016392603
157	0xbd144c89	-0.036205802
158	0x3c6205f4	0.013795365
159	0x3cb47b3f	0.022031425
160	0xbd4a154e	-0.049336724
161	0x3be8de4a	0.007106577
162	0xbc6b48ef	-0.01436065
163	0xbc91d0ff	-0.017799852
164	0xbcff1073	-0.031135773
165	0x3d275c71	0.040859643
166	0x3b9321b8	0.0044901036
167	0x3cbcfef2	0.023070786
168	0x3c782f11	0.01514794
169	0xbcca8cf4	-0.024725415
170	0x3cc0b64e	0.02352443
171	0xbd80209a	-0.06256218
172	0x3c9a4474	0.01883147
173	0xbd33ccb3	-0.04389639
174	0xbd387a5c	-0.045038566
175	0x3c5b926d	0.01340161
176	0x3d1e2a08	0.038614303
177	0x3d08825b	0.03332744
178	0xbd41e40c	-0.047336623
179	0x3d2083f4	0.03918834
180	0xbbc65dfd	-0.0060536847
181	0x3c93b73d	0.01803171
182	0xbb10f577	-0.0022118965
183	0x3c8ccd82	0.017187838
184	0x3c840516	0.016115706
185	0x3d0389e4	0.032113925
186	0xbd377350	-0.044787705
187	0x3cde2c09	0.027120607
188	0xbb88f251	-0.004179277
189	0xbd897823	-0.067123674
190	0xbce464d5	-0.027880112
191	0xbd548c94	-0.05189188
192	0xbd005750	-0.031333268
193	0xbce52b80	-0.027974844
194	0xbd14c13e	-0.036317103
195	0xbccb5adf	-0.024823604
196	0xbcf9972a	-0.030467588
197	0x3d11cf07	0.035597827
198	0xbd2cd0a5	-0.042191166
199	0xbcb51074	-0.022102572
200	0x3cda2225	0.02662761
201	0xbc2de690	-0.010614052
202	0x3bfb8528	0.0076757856
203	0xbc3aefca	-0.011409709
204	0xbcd220c0	-0.025650382
205	0xbc1c3313	-0.009533661
206	0x3be2aa22	0.006917254
207	0x3c16f000	0.009212494
208	0xbc909d3e	-0.017653104
209	0xbd4b712f	-0.049668487
210	0x3cadcb13	0.021214997
211	0x3c956744	0.018237717
212	0xbac23ab0	-0.0014818516
213	0x3cf73c11	0.03018001
214	0xbc28b108	-0.010296114
215	0x3cc535de	0.024073537
216	0xbd6bd9d3	-0.05758078
217	0xbd3f29ec	-0.04667084
218	0xbc91d626	-0.01780231
219	0xbc88c622	-0.01669604
220	0xbc891305	-0.016732702
221	0xbd3ca22f	-0.046053108
222	0x3c8aa482	0.016924147
223	0xbcd003b1	-0.025392385
224	0xba5c10e4	-0.0008394851
225	0xbc734f1a	-0.014850402
226	0x39cb6c41	0.00038799833
227	0x3c3a1652	0.011357861
228	0x3b19dc4c	0.0023477254
229	0x3bd1dda1	0.006404594
230	0x3c77f888	0.015134938
231	0xbbc3a4c3	-0.005970569
232	0xbd1e5c40	-0.038662195
233	0xbd363c59	-0.044491146
234	0xbc1b8a39	-0.009493404
235	0x3c84025a	0.016114403
236	0xbca70020	-0.020385802
237	0xbc1df14a	-0.009640047
238	0xbc87fa79	-0.016598927
239	0x3d129573	0.035787057
240	0x3c1cfdab	0.0095819635
241	0x3c736bf3	0.01485728
242	0x3d1224d5	0.035679657
243	0xbc2e4f20	-0.010638982
244	0x3ceac03a	0.028656114
245	0x3ca6d8c8	0.020367041
246	0x3d1c5c4c	0.03817396
247	0x3b97c729	0.004631896
248	0x3d2bf324	0.041979924
249	0xbbde63d8	-0.0067868046
250	0x3c713d3f	0.014724075
251	0xbd0493d7	-0.032367554
252	0xbc865a61	-0.016400518
253	0xbc0ba20f	-0.0085225245
254	0xbd21f9d5	-0.0395449
255	0x3c89dfa3	0.016830271

encoder.1.0.bias f4 [64]
0	0x3c4ec184	0.01261938
1	0xbd560b4b	-0.052256864
2	0xbd1775f0	-0.03697771
3	0xbb2e211b	-0.0026570025
4	0xbbc30709	-0.0059517664
5	0x3d2aa1bd	0.041658152
6	0x3c7177db	0.014738048
7	0xbaf97883	-0.0019033108
8	0x3cdc8eb1	0.02692351
9	0x3d448962	0.04798258
10	0xbcc1ab3c	-0.023641221
11	0xbd8349ff	-0.06410598
12	0x3cd3842d	0.025819862
13	0x3d336968	0.043801695
14	0xbcd19cb6	-0.02558742
15	0xbd83684b	-0.06416377
16	0x3ccfe356	0.025376957
17	0xbd01ab23	-0.03165735
18	0xbd52be18	-0.05145082
19	0xbc185741	-0.009298147
20	0x3cd6166a	0.026133735
21	0xbd20ab92	-0.039226122
22	0xbcb586b7	-0.022158964
23	0x3c09a3ca	0.008400867
24	0xbd236349	-0.039889608
25	0x3af2a67e	0.0018512753
26	0xbbda34cb	-0.0066591254
27	0xbd24f150	-0.040269196
28	0x3d0ee955	0.03489049
29	0xbb8c3879	-0.004279193
30	0xbd151deb	-0.036405485
31	0xbd489b8b	-0.048976462
32	0x3c90c5d3	0.017672455
33	0x3aa3dfa4	0.0012502563
34	0x3d0dd6a0	0.03462851
35	0x3c8b4814	0.017002143
36	0xbd039a15	-0.032129366
37	0xbcbac2c3	-0.022797948
38	0x3ab5179f	0.0013816244
39	0xbcfa8715	-0.03058199
40	0xbc898f04	-0.016791828
41	0x3d162aa1	0.036661748
42	0xbca0c05e	-0.019622978
43	0xbd2e1cd1	-0.04250795
44	0xbb63e4fb	-0.0034773934
45	0xbd2cee4c	-0.042219445
46	0x3c729ddb	0.0148081435
47	0x3d08311f	0.03324997
48	0x3cbd382a	0.02309807
49	0xbc311f43	-0.010810676
50	0xbd5b5e22	-0.05355657
51	0xbc1fc003	-0.009750369
52	0xbca9b974	-0.020718314
53	0xbce01271	-0.027352544
54	0xbbeca3d0	-0.0072216764
55	0xbd22d9ac	-0.03975837
56	0xbc5caf3d	-0.013469514
57	0xbce3901a	-0.027778674
58	0xbd39f210	-0.045396864
59	0x3d2a1683	0.041525375
60	0x3cd11665	0.025523374
61	0xbbf75a82	-0.007548631
62	0x3d31ca06	0.043405555
63	0xbc4e20ca	-0.01258106

encoder.1.1.weight f4 [64]
0	0x3f7e302d	0.9929226
1	0x3f80c756	1.0060833
2	0x3f7fa99a	0.99868166
3	0x3f821e4c	1.0165496
4	0x3f7bca36	0.98355424
5	0x3f803aac	1.0017905
6	0x3f806589	1.0030986
7	0x3f7e8ed6	0.994367
8	0x3f7f3f61	0.99706084
9	0x3f800d72	1.0004103
10	0x3f7d60ca	0.98975813
11	0x3f82f848	1.023202
12	0x3f822cf5	1.016997
13	0x3f7d78fa	0.9901272
14	0x3f81b85b	1.0134386
15	0x3f7b168f	0.98081297
16	0x3f80d801	1.0065919
17	0x3f80b1be	1.0054243
18	0x3f846586	1.0343482
19	0x3f7e84c7	0.9942135
20	0x3f7ac67f	0.9795913
21	0x3f807fa0	1.0038948
22	0x3f801ff9	1.0009757
23	0x3f84aca3	1.0365185
24	0x3f7ad01d	0.97973806
25	0x3f81a085	1.0127112
26	0x3f7e2356	0.9927267
27	0x3f7c5195	0.98561984
28	0x3f7b8b34	0.9825928
29	0x3f794a1f	0.97378725
30	0x3f8273d9	1.0191604
31	0x3f7b443a	0.9815098
32	0x3f7e900a	0.99438536
33	0x3f809241	1.0044633
34	0x3f7a9192	0.9787837
35	0x3f820c3f	1.0159987
36	0x3f834aac	1.0257163
37	0x3f7e9331	0.99443346
38	0x3f7a64d5	0.9781011
39	0x3f7e2f20	0.9929066
40	0x3f835a07	1.0261849
41	0x3f8015a4	1.0006604
42	0x3f80470d	1.0021683
43	0x3f7cf7b2	0.98815453
44	0x3f7af109	0.9802404
45	0x3f78b483	0.9715044
46	0x3f79fd3c	0.9765203
47	0x3f7cdbbe	0.987728
48	0x3f7e9957	0.9945273
49	0x3f7edc15	0.9955457
50	0x3f84b0bd	1.0366436
51	0x3f7fc190	0.9990473
52	0x3f7bbb6b	0.9833285
53	0x3f7e3a05	0.9930728
54	0x3f80e0d2	1.006861
55	0x3f824a16	1.0178859
56	0x3f80374d	1.0016876
57	0x3f78e62a	0.972262
58	0x3f80ce0d	1.0062882
59	0x3f803996	1.0017574
60	0x3f813041	1.0092851
61	0x3f803bb3	1.0018219
62	0x3f818758	1.0119429
63	0x3f7c9457	0.9866385

encoder.1.1.bias f4 [64]
0	0x3d73338c	0.05937533
1	0xbce39418	-0.027780578
2	0x3bb5aa3f	0.0055439766
3	0xbd21053b	-0.03931163
4	0x3b8551da	0.0040685954
5	0xbccc6d51	-0.02495447
6	0x3c9b38b4	0.018947937
7	0xbd1ae0b1	-0.03781194
8	0xbbb7800c	-0.005599981
9	0xb9364a37	-0.0001738452
10	0xbb4cc10f	-0.0031243002
11	0x3ca17343	0.019708281
12	0x3d03cfe1	0.03218067
13	0xbcbd8eea	-0.023139436
14	0xbc6ce4e1	-0.014458866
15	0xbace41cc	-0.0015736162
16	0x3c0bd95d	0.00853571
17	0xbbc64703	-0.0060509457
18	0x3a99a9a3	0.0011723529
19	0x3a4fd777	0.000792853
20	0xbba153d6	-0.004923324
21	0xbc8d843f	-0.017274974
22	0x3cb5200a	0.022110004
23	0x3cf4f482	0.029901747
24	0x3ab89ade	0.001408424
25	0x3ba923e0	0.0051617473
26	0x3bcb7c71	0.006209903
27	0xba8d80d2	-0.0010795838
28	0xbd051cb2	-0.03249807
29	0xbcd40f0b	-0.02588608
30	0x3cadd406	0.021219265
31	0x3c099ddf	0.008399456
32	0xbbdae491	-0.0066800793
33	0xbc4d9b22	-0.012549194
34	0xb924c68b	-0.00015714222
35	0xbcbe3eb2	-0.023223255
36	0xbc0bca66	-0.008532142
37	0xbc3cd995	-0.011526485
38	0xbce07fd2	-0.0274047
39	0xbcc6a6e7	-0.024249507
40	0xbbf6239f	-0.0075115706
41	0x3beb3fca	0.007179235
42	0x3c3dab4a	0.011576483
43	0xbd09b2a5	-0.033617634
44	0xbc431591	-0.011906997
45	0xbcb50d6c	-0.022101127
46	0xbca12b58	-0.019673988
47	0xbc2b266a	-0.01044617
48	0xbbb57bae	-0.0055384254
49	0xbca2b0cb	-0.019859692
50	0x3d356dd5	0.044294197
51	0xbc0c44c6	-0.008561319
52	0x3ccfee74	0.025382258
53	0xbc6c75ec	-0.014432412
54	0x3c2b21bc	0.010445055
55	0xbbefe6a4	-0.0073211957
56	0x3aa21457	0.0012365681
57	0xbc95be3f	-0.018279193
58	0xbb5cda15	-0.0033699323
59	0xbcca4d63	-0.024695104
60	0x3c430110	0.011902109
61	0x3c279d89	0.01023043
62	0xbbc9dd05	-0.006160381
63	0xbcedb056	-0.029014748

encoder.1.1.running_mean f4 [64]
0	0x3dd21cf1	0.102594264
1	0x3dff616c	0.124697536
2	0xbfabc21e	-1.3418615
3	0xbef1254f	-0.47098777
4	0x3f638a36	0.8888277
5	0x3e347682	0.17623332
6	0x3f222537	0.63338035
7	0x3f04476a	0.5167147
8	0xbf3eb32a	-0.7449213
9	0xbfa42991	-1.2825185
10	0xbee5b823	-0.44867048
11	0x3d7a0a57	0.061045017
12	0x3ec340f0	0.3813548
13	0xbec93295	-0.39296404
14	0xbf10ecd3	-0.56611365
15	0x3faee7d2	1.3664496
16	0x3f33b5d9	0.7019935
17	0x3e86b1e3	0.26307592
18	0x3e87bb60	0.26510143
19	0xbfafc44a	-1.3731778
20	0x3f8f0b59	1.1175338
21	0xbf124ac2	-0.5714532
22	0x3e96d895	0.29462114
23	0x3f29fc07	0.6640019
24	0x3f5ad84d	0.854863
25	0xbe166ddd	-0.14690347
26	0xbe2b03c4	-0.16700655
27	0xbf5f1a30	-0.87149334
28	0x3f688be8	0.9083848
29	0xbf91a25d	-1.1377674
30	0x3f823b7f	1.0174407
31	0xbf2071ae	-0.6267346
32	0xbf2cd9be	-0.6751975
33	0x3df752d6	0.120763466
34	0xbe5d4082	-0.21606639
35	0x3e092bc0	0.13395596
36	0x3e6daaea	0.2320973
37	0xbf1a85aa	-0.60360205
38	0x3f4f17ac	0.80895495
39	0xbf492d53	-0.78584784
40	0x3ed0acb5	0.40756765
41	0x3e6f0ec4	0.23345476
42	0x3dc6e9e4	0.0971258
43	0xbe78adad	-0.24285002
44	0x3f52994c	0.8226516
45	0xbef7b07d	-0.48376837
46	0xbe37bc3f	-0.17942904
47	0x3f0f5264	0.55985093
48	0xbe8d9568	-0.2765305
49	0xbeca5b56	-0.3952281
50	0x3ee6639c	0.4499787
51	0x3ef2aa42	0.4739552
52	0x3ec6ea37	0.38850567
53	0xbfbe83a3	-1.4883922
54	0x3f022d94	0.50850797
55	0x3f55c141	0.8349801
56	0x3e95a3bc	0.29226482
57	0xbec32843	-0.38116655
58	0x3d420ec9	0.04737738
59	0x3f85dd19	1.0458099
60	0x3ecc082a	0.3984998
61	0xbda420ca	-0.080140665
62	0xbef7a114	-0.4836508
63	0xbf4bacca	-0.7956053

encoder.1.1.running_var f4 [64]
0	0x3f7bfaba	0.98429453
1	0x3f9bae1c	1.2162509
2	0x402c9cac	2.6970625
3	0x3f95934c	1.1685576
4	0x3ee2d026	0.4429943
5	0x3f7d6873	0.989875
6	0x3f6dcf78	0.928947
7	0x3fcad739	1.5846931
8	0x3fb22bc0	1.3919601
9	0x402a462e	2.6605334
10	0x3f69eb20	0.913744
11	0x3f807b3d	1.0037609
12	0x3f5c574a	0.8607069
13	0x3f81d90e	1.0144365
14	0x3f4dc9c0	0.8038597
15	0x403bb3f5	2.9328587
16	0x3f9fbc34	1.247931
17	0x3fdc649f	1.7218207
18	0x3f62a621	0.8853474
19	0x40588b91	3.3835185
20	0x400e1100	2.2197876
21	0x3f5f138b	0.87139195
22	0x3f5b801a	0.8574234
23	0x3f65d6d5	0.8978093
24	0x3fc2b65c	1.5211902
25	0x3f5f47bb	0.87218827
26	0x3f1d3605	0.6141055
27	0x3fab6b46	1.3392112
28	0x3ffc8a86	1.9729774
29	0x4059833c	3.398635
30	0x3f22e8ff	0.63636774
31	0x3f8ca421	1.0987588
32	0x401aa270	2.4161644
33	0x3f7f43c6	0.9971279
34	0x3fa5beae	1.2948816
35	0x3f974015	1.1816431
36	0x3f3eb1a3	0.744898
37	0x3fc51ca3	1.5399364
38	0x40288fa2	2.6337667
39	0x4005c6db	2.0902622
40	0x3f76a6f0	0.96348476
41	0x3f2b547a	0.66925776
42	0x3f883c64	1.064343
43	0x3f48f691	0.7850123
44	0x3feece58	1.8656721
45	0x3ff87a03	1.9412235
46	0x3f732b28	0.94987726
47	0x3f62f493	0.8865444
48	0x3f6f21a4	0.93410707
49	0x3fc92021	1.571293
50	0x3f4caff5	0.7995599
51	0x3f889dd7	1.0673169
52	0x3fa43b39	1.2830573
53	0x40320573	2.7815826
54	0x3f2403a8	0.6406808
55	0x3f220894	0.6329434
56	0x3fc1e0df	1.514675
57	0x3fa1739a	1.2613404
58	0x3f8bd250	1.0923557
59	0x403a4c19	2.9108946
60	0x3f92c06a	1.146497
61	0x3f1e24c3	0.61774844
62	0x3fa15d5f	1.260662
63	0x3fac332e	1.3453119

encoder.2.0.weight f4 [64, 64, 3, 3]
0	0xbcdc3300	-0.026879787
1	0xbce8ea9c	-0.028432183
2	0x3d191927	0.037377503
3	0x3cfc6e01	0.030814173
4	0xbcd6a4d0	-0.026201636
5	0x3acd2f82	0.0015654417
6	0xbcab80a4	-0.020935364
7	0x3d007a98	0.031366915
8	0xbc2f36c3	-0.010694209
9	0x3c898fa1	0.01679212
10	0xbcca51fe	-0.0246973
11	0x3bad1551	0.005282082
12	0x3c03b1b8	0.008037977
13	0x3cc9bdcc	0.024626635
14	0xbbddb2d9	-0.006765705
15	0xbd34b1f5	-0.044115026
16	0xbcd925bc	-0.026507251
17	0x3cd2085c	0.025638752
18	0x3d3ae73a	0.04563067
19	0xbb724f97	-0.0036973709
20	0x3c772ed7	0.015086851
21	0xbcecc944	-0.028904565
22	0x3cfd8269	0.030945973
23	0xbc78d041	-0.01518637
24	0x3b3ee7a4	0.0029129768
25	0xbd0010e7	-0.03126612
26	0x3cdc296a	0.026875217
27	0xbd0fa425	-0.03506865
28	0x3b32bd30	0.002727341
29	0x3d50010d	0.050782252
30	0x3ce5fdf0	0.028075188
31	0xbcd55f9b	-0.026046565
32	0x3cde62dc	0.02714675
33	0xbc95f734	-0.018306352
34	0xbcff952e	-0.031199064
35	0xbcea151e	-0.028574523
36	0x3b74c489	0.003734859
37	0xbc42b90d	-0.01188494
38	0x3ce73941	0.028225543
39	0xbd044830	-0.032295406
40	0xbd13fc86	-0.036129497
41	0x3ca81211	0.020516427
42	0xbcc320ea	-0.023819406
43	0x3c01403a	0.007888848
44	0x3bc411de	0.0059835752
45	0xbd128b41	-0.035777334
46	0xbcded5fe	-0.027201649
47	0xbc9f5e86	-0.019454252
48	0xbd449e20	-0.048002362
49	0x3cef42bc	0.029206626
50	0x3d1dd735	0.038535316
51	0xbcdf74df	-0.027277408
52	0x3c0d7178	0.00863301
53	0xbc2402e8	-0.0100104585
54	0xbd06bdf3	-0.032895993
55	0x3cabfec2	0.020995501
56	0x3d3a8c8a	0.045544185
57	0x3c941e35	0.01808081
58	0xbcc13456	-0.023584526
59	0xbd19020e	-0.037355475
60	0xbcea8253	-0.028626597
61	0xbc545fc6	-0.012962287
62	0x3a2a3730	0.0006493209
63	0xbce5879b	-0.028018763
64	0x3c178766	0.00924859
65	0x3b9e7bff	0.004836559
66	0xbc0f687b	-0.008752937
67	0x3cdf585b	0.02726381
68	0xbd1790bc	-0.037003264
69	0xbd38aba6	-0.04508557
70	0xbc35b9f1	-0.011091695
71	0xbc126f3f	-0.008937656
72	0x3c4ad70d	0.012380374
73	0x3c58acb7	0.013224772
74	0xbcc72a29	-0.024312096
75	0xbcd218fe	-0.025646683
76	0x3cb0b700	0.021571636
77	0x3a65520c	0.00087478827
78	0xbd027f38	-0.031859607
79	0xbd2a2a70	-0.041544378
80	0xbd09c81d	-0.03363811
81	0x3d0bdbca	0.034145154
82	0x3cf885d1	0.030337246
83	0xbca800fa	-0.020508278
84	0x3d329e3c	0.043607935
85	0x3ac88450	0.0015298221
86	0x3cb8f5a5	0.02257807
87	0x3c2b0758	0.010438763
88	0xbd055348	-0.032550126
89	0xbbbf1618	-0.005831491
90	0x3cf2a48d	0.02961948
91	0x3c8c88d5	0.01715509
92	0x3ca64849	0.02029814
93	0x3ce6f286	0.028191816
94	0x3ca5ea94	0.020253457
95	0xbc15fbdc	-0.009154286
96	0xbd21887a	-0.039436795
97	0x3c31f86b	0.01086245
98	0xbc34dff9	-0.011039727
99	0x3bbe252d	0.0058027715
100	0xbc63dda4	-0.013907824
101	0x3c1bfc0b	0.009520541
102	0xbd4b9f21	-0.049712304
103	0xbc85890c	-0.0163007
104	0x3c06994c	0.00821526
105	0x3c3fd9e0	0.01170966
106	0x3b56b8b5	0.0032763903
107	0xbbd3beae	-0.00646194
108	0xbd1c6e6b	-0.03819124
109	0xbd107700	-0.035269737
110	0x3c039f6b	0.008033614
111	0x3ce38dbd	0.027777547
112	0xbc16dda6	-0.009208119
113	0xbc86af29	-0.016440945
114	0xbcaad342	-0.020852689
115	0x3bf06f49	0.007337485
116	0xbced6967	-0.028980924
117	0x3bc6ca21	0.006066576
118	0x3d00d42c	0.031452343
119	0xbc8f3b8e	-0.017484453
120	0x3cb484c9	0.022035973
121	0xbc81e3ec	-0.015855752
122	0xbc225d34	-0.009909917
123	0xbd022570	-0.031773984
124	0xbd35d1c1	-0.04438949
125	0xbc959351	-0.018258722
126	0x3d003f5b	0.03131042
127	0xbcbb87e9	-0.022891955
128	0x3d2a6a46	0.041605256
129	0xbd1fa7da	-0.038978435
130	0x3cb90eee	0.022590127
131	0x3cac4900	0.021030903
132	0x3c945150	0.01810518
133	0x3b5fb8d8	0.0034137275
134	0xbd67ddbc	-0.056607947
135	0xbb5d4762	-0.0033764471
136	0x3caa3355	0.02077643
137	0x3cf44bdb	0.029821327
138	0xbd262695	-0.04056414
139	0xbd3f055d	-0.046635974
140	0xbcc26ffa	-0.023735035
141	0xbd31af31	-0.043379966
142	0x3c139152	0.009006815
143	0x3af11a3f	0.0018394663
144	0x3c41fd09	0.011840113
145	0xbcc99f82	-0.024612192
146	0x3ba5c581	0.0050589447
147	0xbcc05fee	-0.023483243
148	0x3cb60af1	0.022222014
149	0xbce47b69	-0.027890878
150	0xbd27d773	-0.040976953
151	0x3cdfed05	0.0273347
152	0x3cce9a8d	0.02522018
153	0x3cd7a060	0.02632159
154	0x3d44bd4f	0.0480321
155	0xbd90fd6a	-0.07079585
156	0xbcbb23dc	-0.022844248
157	0x3d02edfd	0.031965245
158	0x3c141d33	0.009040165
159	0x3d1a513c	0.037675127
160	0x3c61a51c	0.013772275
161	0xbd9ae7a6	-0.07563715
162	0xbc72b8c9	-0.014814564
163	0xbcdf0faa	-0.027229149
164	0xbd0ba5f6	-0.03409382
165	0x3c89c678	0.01681827
166	0xbd116838	-0.03549978
167	0xbd4551d8	-0.048173755
168	0xbc7182e1	-0.014740677
169	0xbcc63920	-0.024197161
170	0xba2a8c4f	-0.0006505893
171	0x3d028a88	0.031870395
172	0x3cfa4aa6	0.030553173
173	0xbd8b96c0	-0.06815863
174	0x3d3d9f29	0.046294365
175	0xbcf0d1fa	-0.029397
176	0xbd26a208	-0.04068187
177	0xbc2170f7	-0.009853593
178	0x3ba55380	0.0050453544
179	0xbc068351	-0.008210019
180	0x3bf5fe0c	0.0075070914
181	0xbd28e0f8	-0.041230172
182	0x3d3d3dd5	0.046201546
183	0x3cbd3892	0.023098264
184	0xbd3899cb	-0.045068543
185	0x3cf5edfa	0.030020703
186	0x3ce98768	0.02850695
187	0x3ca0ae6c	0.01961442
188	0xbd304ef7	-0.043044057
189	0x3d1b686f	0.037941393
190	0x3cbae495	0.022814075
191	0xbd297581	-0.041371826
192	0xbc0a045f	-0.008423894
193	0xbc9c56cd	-0.019084359
194	0x3c90465b	0.017611673
195	0x3c874baa	0.016515572
196	0xbc171983	-0.009222391
197	0x3d0c12e3	0.0341977
198	0xbbfffc6f	-0.007812075
199	0x3cbfeeab	0.023429235
200	0x3d4ee4da	0.05051122
201	0xbc999744	-0.018748887
202	0xbcd1961c	-0.025584273
203	0x3c168f21	0.009189398
204	0xbd3ce57c	-0.04611729
205	0xbca49670	-0.020091265
206	0xbca07e8b	-0.01959159
207	0x3ca12211	0.019669564
208	0xbc196493	-0.009362358
209	0x3d50a353	0.050937008
210	0xbc9aaa61	-0.018880071
211	0xbbad91c2	-0.0052969167
212	0xbd12acc3	-0.03580929
213	0x3d03744a	0.032093324
214	0x3ba8b70f	0.0051487754
215	0x3ba15de9	0.004924525
216	0xbd237968	-0.039910704
217	0x3b970a37	0.004609372
218	0xbcc71e89	-0.024306552
219	0x3d012df1	0.031537954
220	0xbd1cf08c	-0.03831534
221	0xbd21b617	-0.039480295
222	0xbd27f112	-0.041001387
223	0x3bc4ab6a	0.0060018795
224	0xb94daa8a	-0.00019613854
225	0x3cd7d2fd	0.026345724
226	0x3ca2074f	0.019778876
227	0x3cc497ca	0.02399816
228	0xbcf505cf	-0.029909996
229	0x3cc962b7	0.024583204
230	0xbd093574	-0.033498242
231	0xbba378c7	-0.004988763
232	0xbc50610a	-0.012718448
233	0xbb5d7adb	-0.0033795151
234	0x3d0a2bb8	0.0337331
235	0x3bdc67fe	0.006726264
236	0x3c1e55f4	0.0096640475
237	0x3ba29bec	0.004962435
238	0xbb9788ee	-0.0046244776
239	0x3c4244ea	0.011857251
240	0xbc088990	-0.008333579
241	0x3c1a9d84	0.009436969
242	0x3c22503f	0.0099068275
243	0x3bcf6e99	0.006330323
244	0x3c0acd2d	0.008471769
245	0x3ccff3a5	0.025384733
246	0x3cbe72ce	0.023248103
247	0x3cf84836	0.03030787
248	0x3cf82e27	0.030295445
249	0x3c81be06	0.01583768
250	0xbbd45845	-0.006480249
251	0xbd187fc9	-0.03723124
252	0xbcefc8be	-0.029270526
253	0xbc8d5332	-0.017251585
254	0xbc80f2fb	-0.015740862
255	0x3c6775f9	0.014127248

encoder.2.0.bias f4 [64]
0	0x3c7ccf56	0.015430292
1	0x3d0e931d	0.034808267
2	0x3d82d140	0.063875675
3	0x3cd94779	0.026523339
4	0xbd213d41	-0.039365057
5	0x3ca7bbcb	0.020475289
6	0xbc050ada	-0.008120263
7	0xbcf08f3a	-0.02936517
8	0x3bb48f21	0.0055102264
9	0xbc596ecb	-0.013271044
10	0x3c74b843	0.01493651
11	0xbc39bff1	-0.011337266
12	0x3bd545c1	0.0065085595
13	0xbadc61ba	-0.0016813793
14	0xbbac317c	-0.0052549224
15	0xbd0e3658	-0.034719795
16	0xbcf94022	-0.030426089
17	0x3cb6afa8	0.022300556
18	0xbb44778a	-0.0029978477
19	0xbd407ab9	-0.046992037
20	0x3bf00c1c	0.0073256623
21	0x3ce98be5	0.02850909
22	0x3a874e95	0.0010323102
23	0x3d3862e9	0.045016203
24	0xbc6c5f42	-0.014427008
25	0xbc4168f9	-0.011804813
26	0x3d0b3eeb	0.03399555
27	0x3d2cca15	0.042184908
28	0x3d175f88	0.03695634
29	0x3c6b1d57	0.014350257
30	0xbd008443	-0.031376135
31	0x3b126885	0.002234013
32	0x3c83bab0	0.01608023
33	0xbca4d5d9	-0.020121502
34	0x3c1d3b15	0.009596606
35	0x3d04ff6a	0.032470144
36	0xbbeab382	-0.0071625123
37	0x3c0aad07	0.0084641045
38	0x3bc8324f	0.006109513
39	0xbd358cd2	-0.04432375
40	0xbd1866a0	-0.037207246
41	0x3cd827cc	0.026386164
42	0x3d3b5555	0.045735676
43	0xbc85e119	-0.016342686
44	0x3a3b7590	0.0007151002
45	0xbc6ebd1c	-0.014571454
46	0xbcf6862b	-0.030093273
47	0xbce68288	-0.028138414
48	0xbc1741e4	-0.009232018
49	0xbd07ec61	-0.033184413
50	0x3d064a7a	0.03278587
51	0xbcc41c49	-0.023939269
52	0xbd4e611d	-0.050385583
53	0x3cd32aea	0.025777299
54	0xbc087c8e	-0.008330477
55	0x3d2d8a75	0.04236837
56	0xbbc2db37	-0.0059465426
57	0xbd4daa71	-0.050211374
58	0x3cded4bc	0.027201049
59	0x3cf3e1d0	0.029770762
60	0xbc82aa67	-0.015950395
61	0x38fb0cc6	0.00011970992
62	0xbbfb9e89	-0.007678811
63	0xbc04012f	-0.008056923

encoder.2.1.weight f4 [64]
0	0x3f7dc651	0.9913073
1	0x3f80158e	1.0006578
2	0x3f83ca32	1.029608
3	0x3f828e90	1.0199757
4	0x3f7e27ef	0.99279684
5	0x3f7ab276	0.9792856
6	0x3f803a86	1.001786
7	0x3f836ac4	1.0266957
8	0x3f81d068	1.0141726
9	0x3f7f501d	0.9973162
10	0x3f7f14e7	0.9964127
11	0x3f7ec62f	0.99521154
12	0x3f818256	1.01179
13	0x3f7e2f32	0.99290764
14	0x3f7f3048	0.99683046
15	0x3f7dac6f	0.9909124
16	0x3f7a82a7	0.9785561
17	0x3f82748b	1.0191816
18	0x3f80ee27	1.0072678
19	0x3f75e61e	0.96054256
20	0x3f7ea8a7	0.99476093
21	0x3f827eb0	1.0194912
22	0x3f7b08e5	0.98060447
23	0x3f7f72b6	0.9978441
24	0x3f805d3b	1.0028452
25	0x3f804512	1.0021079
26	0x3f83a56d	1.0284859
27	0x3f81b94a	1.0134671
28	0x3f7fba0f	0.9989328
29	0x3f7a231f	0.9770984
30	0x3f80e773	1.0070633
31	0x3f80762c	1.0036063
32	0x3f81f4b0	1.0152798
33	0x3f7cd73c	0.9876592
34	0x3f7e806e	0.9941472
35	0x3f8026fb	1.0011896
36	0x3f7dfc8b	0.99213475
37	0x3f79b6ae	0.9754437
38	0x3f8023cb	1.0010923
39	0x3f7b805a	0.98242724
40	0x3f80f17e	1.0073698
41	0x3f7e85d3	0.9942295
42	0x3f7a94df	0.9788341
43	0x3f7b724e	0.9822129
44	0x3f7b6876	0.9820627
45	0x3f81f8fe	1.0154111
46	0x3f7f2d14	0.9967816
47	0x3f85b4d1	1.0445806
48	0x3f7c4584	0.9854357
49	0x3f7f0d2f	0.9962949
50	0x3f802990	1.0012684
51	0x3f801bb0	1.000845
52	0x3f7e6518	0.99373007
53	0x3f7a59b7	0.97793144
54	0x3f7fb8a5	0.9989112
55	0x3f826a6a	1.0188725
56	0x3f84874c	1.0353789
57	0x3f81e665	1.0148436
58	0x3f7cad24	0.9870169
59	0x3f7c5ea8	0.98581934
60	0x3f8262f7	1.0186452
61	0x3f7d6cc6	0.989941
62	0x3f816c26	1.0111129
63	0x3f7c2388	0.98491716

encoder.2.1.bias f4 [64]
0	0xbcd02f1a	-0.025413085
1	0xbcb98574	-0.022646643
2	0xbac718a4	-0.0015189839
3	0xbcb22f87	-0.021751178
4	0x3b79ef66	0.0038137077
5	0xbc4dc328	-0.012558736
6	0x3cbf56a3	0.023356741
7	0xbc45fcb6	-0.012084177
8	0xbcdb8d5f	-0.02680081
9	0xbcd33dc6	-0.025786292
10	0x3c423d71	0.011855469
11	0x3d5faf55	0.05461057
12	0xbb1178cd	-0.0022197247
13	0xbc6e281e	-0.014535932
14	0xbacf109f	-0.00157978
15	0xba02aeab	-0.0004985134
16	0xbca435ee	-0.020045247
17	0x3ca41660	0.0200302
18	0xbc62dc23	-0.01384643
19	0xbd073844	-0.033012643
20	0x3cb75c38	0.02238284
21	0x3c1c2aa6	0.009531653
22	0x3c84f69c	0.016230874
23	0xbc103ae1	-0.0088031
24	0xbcbb9789	-0.022899406
25	0x3bec528e	0.0072119897
26	0x3b0ef138	0.0021811258
27	0xbbb1a8a5	-0.0054217153
28	0x3c7419f1	0.014898763
29	0xbccb7d46	-0.024840008
30	0x3c2f3f43	0.010696235
31	0x3bb77bfd	0.0055994974
32	0xbb10d004	-0.0022096643
33	0x3ba2a082	0.0049629817
34	0xbb7e2d59	-0.0038784354
35	0xbbd0f83f	-0.0063772495
36	0xbc5d4136	-0.013504317
37	0xbc8b0816	-0.01697163
38	0xbc8e1bb2	-0.01734719
39	0xbcb47a45	-0.022030959
40	0xbcf9c44f	-0.030489115
41	0x3b959a49	0.0045655114
42	0xbcdd40c5	-0.027008424
43	0xbaa5b9a8	-0.0012643831
44	0xbcb1ad20	-0.021688998
45	0x3b983d8f	0.00464601
46	0xbd5e4c3b	-0.054271918
47	0xbc505b9a	-0.012717152
48	0xbc1af73f	-0.009458362
49	0xbba79f74	-0.005115444
50	0xbc1a074d	-0.009401155
51	0xbb9cd05e	-0.0047855815
52	0xb9bd4db2	-0.00036106777
53	0xbad15d74	-0.0015973286
54	0xbcd288ff	-0.02570009
55	0xbcc1f893	-0.0236781
56	0x3b8c1c49	0.004275833
57	0xbcb61e6b	-0.022231301
58	0xbc246fb2	-0.010036396
59	0xbcadeccf	-0.021231083
60	0xbcd060eb	-0.02543684
61	0xbcb330a9	-0.021873789
62	0xbbd968c1	-0.006634802
63	0x3c89c76e	0.016818728

encoder.2.1.running_mean f4 [64]
0	0xbfa88c9e	-1.3167913
1	0xbf16b225	-0.58865577
2	0x3ea6f063	0.32605276
3	0x3f561d11	0.836381
4	0x3fc8b23b	1.5679392
5	0x3f848824	1.0354047
6	0x3f7e1503	0.9925081
7	0xbe984611	-0.29740956
8	0xbf49ba4f	-0.7879991
9	0x3f729d0f	0.947709
10	0xbf9c0f52	-1.2192175
11	0x3f660951	0.89857966
12	0xbf69f524	-0.9138968
13	0xc01f67a3	-2.4907005
14	0xbfed3ec2	-1.8534777
15	0x3de37d74	0.11107913
16	0xbf72c61d	-0.94833547
17	0x3f22eba0	0.63640785
18	0x3dee8e2d	0.11648212
19	0x3fba0d1a	1.4535248
20	0x3f7b4620	0.9815388
21	0x3e74ba3e	0.23899171
22	0xbdc47d0f	-0.095941655
23	0xbfe80932	-1.8127806
24	0xbcf28801	-0.029605867
25	0x3d8d1b6e	0.068899974
26	0xbf68c12e	-0.9091977
27	0x3e70eac7	0.2352706
28	0xbeb5a104	-0.35474408
29	0x40199649	2.3997977
30	0xbed4d5f8	-0.41569495
31	0x3e926090	0.28589296
32	0x3e62430c	0.22095889
33	0x3fdc9ec8	1.7235956
34	0x3f11066f	0.5665044
35	0x3f30b6f4	0.69029164
36	0xbfb7d0bd	-1.4360577
37	0x3ea9d078	0.33166862
38	0x3e5defa4	0.21673447
39	0xbf5722f0	-0.84037685
40	0x3dc5def4	0.096616656
41	0xbfeb7971	-1.8396436
42	0xbfefb273	-1.8726333
43	0x3e56edd6	0.20989165
44	0xbf8ab6e8	-1.0837069
45	0x3e13c734	0.14431459
46	0xbf7e90c8	-0.9943967
47	0xbe3a274c	-0.18179053
48	0xbfe02267	-1.7510499
49	0x3e6efc8f	0.23338531
50	0xbf88c6d1	-1.0685674
51	0x3ec7e2f2	0.39040333
52	0xbef774f8	-0.48331428
53	0x40083545	2.1282513
54	0xc02196d2	-2.5248303
55	0xbe55ba59	-0.20871867
56	0x3e85490e	0.260323
57	0x3e9d3915	0.30707613
58	0x3f31f07a	0.69507563
59	0x3f1d9526	0.6155571
60	0xbe819a60	-0.2531309
61	0xbfcd2151	-1.6025792
62	0xbf8fd826	-1.1237838
63	0x3e9b0f72	0.3028522

encoder.2.1.running_var f4 [64]
0	0x3fcbf8b3	1.5935272
1	0x3f3dfc96	0.7421354
2	0x3f9522f1	1.1651288
3	0x3f9d0922	1.2268412
4	0x3fd57cff	1.6678771
5	0x3ff56cec	1.9173865
6	0x3f8dae5d	1.1068836
7	0x3f88de91	1.0692922
8	0x3fb11cfa	1.3836968
9	0x400f818b	2.2422817
10	0x3fa0754e	1.2535799
11	0x3fd6b9f7	1.6775502
12	0x3fc3dc48	1.53016
13	0x404887b9	3.1332839
14	0x3fa358ff	1.2761534
15	0x402925a3	2.6429222
16	0x3ff9a228	1.9502611
17	0x3f98fcd6	1.195216
18	0x3fea02a3	1.8282055
19	0x4044a160	3.0723495
20	0x40422e77	3.034086
21	0x401e3fee	2.472652
22	0x400522b0	2.0802422
23	0x402bf25e	2.686668
24	0x3f7379cb	0.95107716
25	0x3fa7bfc1	1.3105394
26	0x3ff335b2	1.9000762
27	0x3f8c650b	1.0968336
28	0x3ff874d2	1.9410651
29	0x405f3642	3.4876866
30	0x3f80b5d3	1.0055488
31	0x3fe31399	1.7740356
32	0x3fc66ed7	1.5502576
33	0x40354b7e	2.8327327
34	0x3f8ef311	1.1167928
35	0x40123089	2.2842124
36	0x3fc1c648	1.5138636
37	0x3fb82f61	1.4389459
38	0x3f7dd0c2	0.99146664
39	0x4000f30a	2.014834
40	0x3f913cdf	1.1346701
41	0x4052faa9	3.296549
42	0x402bd030	2.6845818
43	0x3fe640a1	1.7988473
44	0x3ff04e47	1.8773888
45	0x3fb69bfc	1.4266353
46	0x40018ae3	2.024102
47	0x3faf205e	1.3681753
48	0x3ff2620e	1.8936174
49	0x3fef2a11	1.8684713
50	0x4000ea9e	2.01432
51	0x3fa81151	1.3130285
52	0x3fbec4a4	1.490376
53	0x405cfe2a	3.453013
54	0x402aa056	2.6660361
55	0x3fb445bf	1.4083785
56	0x3f9e176f	1.2350901
57	0x3fb6562e	1.424505
58	0x3fdad364	1.7095761
59	0x3fea6e50	1.8314915
60	0x4014330a	2.3156152
61	0x3fe1de43	1.7645954
62	0x40129f79	2.2909834
63	0x3fe1c8c8	1.7639399
